system/assistant/models/hey_frog_pilot.onnx (onnx, 205430 bytes, 9 tensors)

layer1.weight f4 [32, 1536]
00000000: 7804 d9bc fc2e 883c 0892 563c 1612 233c
00000010: 255d 8a3d 3291 ff3b 6f47 23bd 9e38 11bd
00000020: 5c3c 50bc 3183 4b3c 0c62 f2ba 38bd cc3b
00000030: 8309 07bd 0ef5 63bc 1745 d73c a997 ec3b
00000040: ec50 53bd 7be1 f73c 47c0 973b 90f6 96bc
00000050: 0da9 d93b 56bc f8bb 942b 9dbc 6f81 db3c
00000060: 1170 dfbc 1535 1abd 5b3e aa3c bd66 5cba
00000070: f602 443c ad22 70bc 38ab 86bb 5bbc 6bbc
00000080: d6fe a3bb d3df 663a 2edb c53b 5d01 9d3b
00000090: bc2d 9dbc fa09 b93c ed31 2c3c 3c40 f13b
000000a0: e63b 60bd d637 91bc c2a0 473a a9bc 87bc
000000b0: b6d5 32bc 0368 1b3c dbf6 afbc 1573 20bc
000000c0: 3502 9dbc c9df c0bc 7fd3 163d d2d8 71bb
000000d0: 6e2a 21bd 8c0b 063d dbef 22bc 6d60 be3c
000000e0: ee95 01bd aee4 99bc add4 8fbc 92f1 53bc
000000f0: 1c8e 253c 3446 20bd 09a7 563c 7c00 babb
00000100: 79f5 553c 372a 12bc ba1d 363c 280a 6aba
00000110: 6aa0 aa3c 13e5 9a3c 9b9f d4bc 3923 813c
00000120: 7fac 963c 55ae 7dbc 72d0 dbbc c1a4 1c3c
00000130: 48d2 863c 2045 573b e619 9c3c e55e aa3c
00000140: 2afe 35bd f9fc e5bc 1098 373c 1fd7 8b3c
00000150: 9ffd 803c 56d6 ff3b 0dde 25bd e202 e93c
00000160: f06a 093d 8353 59bc 27a9 7cbc b2e6 dabc
00000170: 0949 97bc 4d84 c53b e41b 4abb 5352 4c3c
00000180: ece3 9cbb 5b8b 113d 5684 7d3c 1748 8abc
00000190: 0772 893d e63f 663c 59a8 debc b190 b6bb
000001a0: 2237 fabc d53a 53ba a3eb 2bbc e8f4 0c3d
000001b0: 0c05 4e3b a858 78bc ec9f a53c 5457 eebc
000001c0: fc76 29bd c0bd 693c 99ed e0bc a4c2 673c
000001d0: ebee bfbc 6f01 49bb 0b5b d53c ff97 e7bc
000001e0: 6c03 493c 8107 e03b 2785 13bc f424 893b
000001f0: 97e5 813a 020d 42bc 6acc e03c 92e5 e63c
00000200: 4420 553c 9817 843c 5c3a bcbc 48a7 b63b
00000210: d702 e0bc 36de 7a3c 7a39 b63c e2e2 78bb
00000220: 517d d1bb 8139 29bc 6315 cf3c ee95 7d3c
00000230: fdf9 2cbd ed74 6a3c 34b9 503c 54f5 79b9
00000240: dab5 81bc 57d2 a7bc 82e8 423c 7174 d03c
00000250: ef77 f3bc 72f0 293d bf15 c03a 2c8b b3bb
00000260: 9287 eb3b f3e0 77bc d38b 1c3c d029 8dbb
00000270: ef13 cabc f8d7 b0bc 1c94 acbc 57e2 3f3c
00000280: 7a99 9cbc 0afe d63b 5fec bf3c 6aaa b33c
00000290: fa54 013d c4cf 493c 553b 83bd 4035 4a3c
000002a0: 4fd8 d93c 386d 81ba b837 07bb fbf2 babb
000002b0: 7bf3 143d 063a 1d3d 81b5 c03c 02fe e23a
000002c0: 2673 51bc d28c 06bd a558 94bb e5b4 273b
000002d0: 3736 1d3c 09d3 cbbc fdfa e7bc 9b9c fa3b
000002e0: c556 533d 6ea7 a6bc 6981 81bc e66c 0ebc
000002f0: 7a7b 5b3b 31f9 64bc af93 993b a7c9 47bc
00000300: c168 253d 533a 9d3c 3a76 b3bb 4da0 9c3c
00000310: ac16 103d 6dd1 8a3c 4e7a 91bc 7b0e fd3b
00000320: 3811 0bbc a811 33bd ff54 da3c 1b31 f2bc
00000330: e776 a23b b3ac 38bc 9710 2dbc e978 bebb
00000340: 51bc aebc 4fd9 b6bb d411 283b e949 1f3c
00000350: 3db7 46bc 350b ab3c c35d fcbb cb05 a1bc
00000360: 976b a2bb 2689 353b 8906 a83c fb46 993c
00000370: 2192 8bbc 4b11 f83b 7608 19bc 2acd 893c
00000380: ffcb 403c 5dd5 d7bb 64c4 5fbc d06a 9cbc
00000390: 6f97 afbc 6dbb 943c b43c 123d 135f c43c
000003a0: cc9d a5bc 60c2 be3a f4b8 003c 2616 81bc
000003b0: 85ed 54bb b304 603c 4098 5bba f2a3 2fba
000003c0: 3669 06bc 415e 35bc 8530 aa3c f486 c33b
000003d0: 1536 67bc 2f7e 153c 3c08 d53b f757 78bb
000003e0: 47f7 c5bc c2f0 1abc 8b07 743c cdb0 a23b
000003f0: 7e01 93bc 94be bebb 2808 0abd 29be d53c
-0.026491389 0.016623966 0.01309634 0.0099530425 0.06756047 0.007799291 -0.039863046 -0.035454385
-0.012709703 0.012421415 -0.0018492355 0.0062481426 -0.032968055 -0.013913406 0.026278062 0.0072202277
-0.051590845 0.030258885 0.0046310755 -0.018428117 0.006642467 -0.007590811 -0.019185819 0.026795117
-0.027275117 -0.03764828 0.020781687 -0.0008407643 0.011963597 -0.014656705 -0.0041097663 -0.014388169
-0.005004744 0.0008807156 0.006038091 0.0047914223 -0.019186847 0.022587765 0.01050995 0.0073623937
-0.054744624 -0.01772682 0.00076152023 -0.016569452 -0.0109152105 0.009485248 -0.021480015 -0.009793063
-0.019166091 -0.02354421 0.036822792 -0.0036902917 -0.039347105 0.032725856 -0.009944881 0.023239339
-0.031637125 -0.0187858 -0.017557466 -0.012936013 0.010104682 -0.03912945 0.013101348 -0.0056763273
0.0130590135 -0.008921198 0.011115486 -0.0008927905 0.020828445 0.01890806 -0.025955012 0.015763866
0.0183928 -0.0154834585 -0.026832793 0.009560765 0.016457692 0.0032847598 0.019055318 0.020797202
-0.044431843 -0.028074728 0.011205688 0.017070351 0.015745936 0.0078075333 -0.040494967 0.028443757
0.03354925 -0.01326454 -0.015421188 -0.026721332 -0.018467443 0.0060277344 -0.0030839378 0.0124707995
-0.0047879126 0.03553329 0.015473446 -0.016880078 0.06711202 0.0140533205 -0.027179884 -0.005571448
-0.030543867 -0.0008057778 -0.010493192 0.03441325 0.0031436114 -0.015157856 0.020217858 -0.029094376
-0.041373238 0.014266431 -0.027457045 0.014145527 -0.023429355 -0.003067102 0.02604439 -0.02827072
0.012268882 0.006836832 -0.009003914 0.0041853134 0.0009910342 -0.011843922 0.027441222 0.02818564
0.013008181 0.016124532 -0.022977047 0.0055741407 -0.027345104 0.015311768 0.022244204 -0.003797703
-0.0063931127 -0.010328651 0.025278753 0.015477641 -0.042230595 0.014310104 0.012739468 -0.00023837882
-0.015833784 -0.02048604 0.0118962545 0.025446149 -0.029720275 0.041489072 0.0014654918 -0.005479237
0.007187792 -0.015129316 0.009554821 -0.004307963 -0.024667708 -0.021587357 -0.021066718 0.0117116785
-0.019116152 0.0065610455 0.02342814 0.021931846 0.03157518 0.012317602 -0.06407801 0.012341797
0.026592402 -0.0009874469 -0.0020632576 -0.005705235 0.036365014 0.038385414 0.023524048 0.0017318132
-0.012783801 -0.03284914 -0.004527169 0.002559 0.009595445 -0.024880903 -0.028317923 0.0076480634
0.05159642 -0.020343509 -0.015808778 -0.008692956 0.0033490346 -0.0139754275 0.0046867947 -0.012194074
0.040383104 0.01919285 -0.00547674 0.019119406 0.03517787 0.016945565 -0.017758515 0.0077226735
-0.008487992 -0.04371801 0.026651857 -0.029564431 0.004958022 -0.011271643 -0.010563037 -0.0058127535
-0.02133003 -0.0055801044 0.0025645392 0.009722211 -0.012128648 0.020879367 -0.007701607 -0.019656083
-0.0049566734 0.0027700155 0.020510929 0.018710604 -0.017037453 0.007570421 -0.009340396 0.016821463
0.011767386 -0.006586714 -0.013657663 -0.0190939 -0.021434514 0.018155778 0.035702422 0.023971116
-0.020216845 0.0014553778 0.007856596 -0.015757632 -0.0032490205 0.013672995 -0.0008376874 -0.000670015
-0.008203795 -0.011069835 0.020775089 0.0059670154 -0.014112015 0.009124323 0.0065012258 -0.0037894228
-0.024165763 -0.009456815 0.0148943765 0.004964924 -0.017945047 -0.0058210585 -0.033699185 0.026091652

layer1.bias f4 [32]
00000000: 8169 04bc 5fbf 953c ca79 bbbc 1683 16bc
00000010: 7404 573c d3bf 88bc 4e81 a3bc 39a7 d73c
00000020: 4d55 ac3c 699a 87bc 39ea ee3b 7889 fb3a
00000030: 44de 61bc 5aee debb e268 1dbc 507e 943c
00000040: 368c f5bb 17af 4abc 016b e1bc 7eae a23c
00000050: 21fe 1b3c 5ea7 e2bc 09de 28bc f497 d5b9
00000060: f426 d8ba 8544 53ba 29d0 a2bc 6c84 933b
00000070: 41d7 ab3c 41ce 0d3b 6344 e3ba 09cc 00bc
-0.008081795 0.01827973 -0.022885222 -0.009186527 0.01312362 -0.016693031 -0.019959118 0.026324855
0.021036768 -0.01655312 0.007291105 0.0019190749 -0.013785902 -0.006803316 -0.009607526 0.018126637
-0.007493521 -0.012370846 -0.027516844 0.019858595 0.009521038 -0.027667698 -0.010306844 -0.0004073974
-0.0016491101 -0.00080592214 -0.01987465 0.00450187 0.020976664 0.002163783 -0.0017339106 -0.007861146

layernorm1.weight f4 [32]
00000000: 4440 813f d6cf 7f3f ecd1 7f3f a81f 803f
00000010: ba36 833f 8a16 813f 5d66 7f3f 3dc7 7c3f
00000020: c259 893f 11b3 833f 34f1 743f 1e8d 7d3f
00000030: 195a 813f ec18 813f 99a4 813f 70ba 7f3f
00000040: b7c6 7f3f e213 813f ded0 7e3f 0acf 783f
00000050: d2bd 823f 6b12 803f 0d93 7c3f 793d 823f
00000060: a863 823f 9ccf 7f3f 2c87 843f 3684 7f3f
00000070: ca69 7f3f 2955 853f df01 813f 2d83 7f3f
1.0097737 0.9992651 0.9992969 1.0009661 1.0251076 1.0085003 0.9976557 0.98741513
1.0730517 1.0289022 0.95680547 0.9904345 1.0105621 1.008573 1.0128356 0.99893856
0.9991259 1.0084193 0.99537456 0.97190917 1.0214179 1.0005621 0.9866188 1.017501
1.0186663 0.9992616 1.0353751 0.9981111 0.99770796 1.0416614 1.0078696 0.99809533

layernorm1.bias f4 [32]
00000000: 2718 2b3c bb16 c5b9 ae5c 6fba 7988 2e3b
00000010: 0db8 9e3c 6c94 be3b 81bb 45bc fd59 e93b
00000020: eac0 203d 1d82 363c 9ce2 33bb 92c0 9b3c
00000030: a0e5 3a3c a66e 293c 660d b43c 9700 1dbc
00000040: 3bc1 b8bb 4908 003d 85c5 37bc ca5f 0c3c
00000050: 26da 9b3c 016c bc3a 217d 25bd 8f98 513c
00000060: 6719 d63c 525e 38bb b7d6 553c 6cb6 1ebc
00000070: 4e1c 64bc c6ac c33c 057a 9f3c 5d42 24bc
0.01044277 -0.00037591704 -0.0009130937 0.0026631637 0.019374872 0.005816033 -0.01206863 0.007121323
0.039246477 0.01113942 -0.0027448302 0.019012723 0.011407286 0.010341322 0.021979045 -0.00958266
-0.0056382692 0.0312579 -0.011216526 0.00856776 0.01902492 0.0014375449 -0.040402535 0.01279272
0.02613516 -0.002813239 0.01305168 -0.009687047 -0.013922764 0.023886096 0.019467363 -0.010025588

blocks.0.fcn_layer.weight f4 [32, 32]
00000000: a64f 723d 14ea e23d d12f 933d 9182 d8bc
00000010: 5bbf 21be 1e62 1a3e a193 62bd ccfd b93a
00000020: 2868 94bd e1f7 3dbd 2616 383d 7c7e 6eba
00000030: 6104 18be cd29 27be e825 2a3e d05f 35bd
00000040: 523c 2cbd 0724 f73c 6996 92bd 3271 ad3d
00000050: 4134 8fbd c5bc e4bd 03ce 0c3e ff0b 2c3e
00000060: a25a 973d 06d3 db3c b290 19be 16b6 bcbd
00000070: 5a1c 233e 6720 983d 0b32 1b3e 76be 943d
00000080: 707a 143e 8a50 d3bc 572c f2bd 8145 2dbe
00000090: 73d5 98bd c1e5 563e 4a10 493d 38e1 bebd
000000a0: cde9 b53d 06a6 26bd 8615 02bc 6b98 c5bd
000000b0: a7be 243e df30 343b 6514 333e 6598 16be
000000c0: fd9d 333e 49dc 053e 9674 f53d 5dc7 ea3d
000000d0: 00af 55bc 1565 22be 3c8e 953d a3cb 033e
000000e0: 3cc6 eebd 408c 083d 6db7 a2bd 04dd f4bd
000000f0: 0cb3 663c 1964 673e 393f 53be 15e7 553d
00000100: 4706 fbbd e70b 2c3e 8339 16be 11c9 f63c
00000110: e59f dabb 5e8e 3fbd 9fe0 25be 7a5a 01be
00000120: f6f9 43bc cb02 be3d 25fb d03d fee6 9bbd
00000130: 3e1c cf3d e711 b73d 7c61 aa3d 8eb1 83bd
00000140: 2f79 3bbd 10d7 19be ea88 7dbd 45f9 003e
00000150: 21e9 133c d2c1 df3c 30d8 b23b 9d65 68bd
00000160: 4400 b33d 1fb8 fd3c ee53 96bd 1622 8ebd
00000170: 358b 403d 8e8b efbd 41da 5b3d 136d 73bd
00000180: 3e09 1c3e a090 a4bd 66c0 06bd 9c22 c2bd
00000190: e33e 153e 5d7f 8bbc 11b3 ff3d 481e 8abd
000001a0: c7ef e73c 5888 babd a8d9 30bd d7e9 843d
000001b0: 8ea6 a7bd 2fc3 b3bd 7edd 7abd d88f 953d
000001c0: ad09 013e d06a d03d 6063 0d3e 84a2 e23d
000001d0: 5951 3ebd 81bf 073e be5b 053e 0ad4 c5bd
000001e0: e6ff a93d 74cf 2bbe a13f 50be 902c 833c
000001f0: 7727 0fbd fb6f 44be b706 113e 7f3d 1a3e
00000200: e8a4 8fbd 0090 293d fa40 843d 5418 193e
00000210: e51f aabd 0ea8 e03d a9a6 06be 78f0 0e3e
00000220: 51de 873c e63f 463d 6eac 41be 4c79 0f3e
00000230: ea72 1cbe 6f42 6a3d 467e 44be 80b0 8ebc
00000240: 2fea 333d 6d8b ccbd e77d fbbd 987e f0bd
00000250: 8229 2d3e 084c 113e 033f 4f3c 475e a0bd
00000260: 0ca1 93bc d261 30be e2a7 19be 1b2c aabd
00000270: cb6d 75bd 6f1f aa3d 780a 09be ed97 8d3d
00000280: dfac 533d 9682 0bbe a74e 1b3e 85bc c5bd
00000290: 98ec 48bc 716b a1bd efd8 303e e9ad e73d
000002a0: e154 8abd 8b0b 9a3c 7bc1 983d 74ff d5bd
000002b0: 8813 04be e94b 113e 3d4a fabd 2dec 36bd
000002c0: f167 16be c14b 5c3d 9f75 9e3c b8ae 3b3e
000002d0: 756d 963c ce81 2abe b980 163e f767 a83d
000002e0: 9f3e 453c 8402 0d3d 7280 20bd b6f0 c6bd
000002f0: 219f fd3d baeb 10be d276 0d3e 67e5 49bc
00000300: 364f 1ebd d01d 34bd 3ade 843d d184 af3d
00000310: ffb7 89bd 4c29 e23c fef1 57bd 093c afbd
00000320: c781 1a3e b083 d5bd 1618 ed3c 2f46 b23c
00000330: fe15 2d3e 780d bfbd d81f 69bd eaa9 a6bd
00000340: 3e38 5abd c072 04be 1a68 84bd f638 b6bd
00000350: 7048 ce3d c223 303e adfb f43c ac9f 6d3c
00000360: a38d 16be 6c3a f2bc 997e 94bd 7059 bc3d
00000370: b8c3 21be d33c cdbd 52cc 2cbe 40f9 4fbd
00000380: d544 23bd 034a 403b e859 5d3c e46f 26bd
00000390: 7e4c f83d 7af8 083e 7ba7 fc3d 36e7 e1bd
000003a0: 8403 04be ef6c 7c3d 232a 8c3c c711 2e3e
000003b0: ce0c 173e 6334 c9bd 95e9 183e 2e64 23bd
000003c0: 7a15 bb39 151a 01be 6f52 5a3b 4124 0e3e
000003d0: 7ffc d63c 1fd1 c9bd b8f7 0bbe 553d b6bd
000003e0: 1247 febd 1b5d 633d a685 6fba 3cac 1dbe
000003f0: 297f 04be 04bf 013e 8f30 b53d 87b4 87bd
0.05915799 0.11079803 0.07186855 -0.026429446 -0.15795653 0.15076491 -0.05531657 0.0014190017
-0.07246429 -0.046378974 0.044942997 -0.0009097827 -0.1484542 -0.1632454 0.16616023 -0.044280827
-0.042049713 0.030168546 -0.07157595 0.08468856 -0.069923885 -0.111688174 0.13750462 0.16801451
0.07390334 0.026834022 -0.14996603 -0.09214418 0.15928784 0.07428055 0.15155809 0.0726289
0.14499831 -0.02579524 -0.118248634 -0.16921045 -0.07462587 0.20986082 0.0490878 -0.09320301
0.088824846 -0.040685676 -0.007939702 -0.09648212 0.16088353 0.002749495 0.17488249 -0.14706571
0.17540736 0.13072313 0.11985128 0.11463807 -0.0130422115 -0.15858872 0.0730252 0.1287065
-0.11658904 0.033336878 -0.07945142 -0.11956218 0.014080774 0.22596778 -0.20629586 0.05222233
-0.12257057 0.16801415 -0.14670376 0.030125173 -0.006671893 -0.04676663 -0.16198967 -0.1263217
-0.011961451 0.092778765 0.10204152 -0.07612418 0.10112809 0.089389615 0.08319375 -0.0643035
-0.045769867 -0.15023446 -0.06189815 0.12595089 0.00902775 0.0273141 0.0054579005 -0.05673753
0.08740285 0.030971585 -0.07340227 -0.06940095 0.04700776 -0.1169654 0.05367494 -0.059430193
0.152379 -0.080353975 -0.03289833 -0.094792575 0.1457477 -0.017028505 0.12485326 -0.06744057
0.028312577 -0.09108037 -0.043176323 0.06489914 -0.08186065 -0.08777463 -0.061246388 0.07302827
0.12601347 0.10176623 0.1380744 0.11066154 -0.046464298 0.13256647 0.13023278 -0.09659584
0.08300762 -0.16778356 -0.20336773 0.01601246 -0.034949746 -0.19183342 0.14162718 0.15062521
-0.07013875 0.041397095 0.06457706 0.14950687 -0.08306865 0.10969554 -0.13149513 0.13958919
0.0165855 0.048400782 -0.18913433 0.14011115 -0.15278211 0.057192262 -0.19188794 -0.017418146
0.043924507 -0.09987531 -0.12279873 -0.11742896 0.16910365 0.1418916 0.0126493005 -0.07830482
-0.01802113 -0.17224815 -0.15005448 -0.08309194 -0.05991916 0.08306777 -0.133829 0.06913743
0.051678535 -0.13624033 0.15166722 -0.09655098 -0.01226344 -0.07881821 0.17270254 0.113124676
-0.067544706 0.018804332 0.074587785 -0.104491144 -0.12898076 0.14189114 -0.12221191 -0.04465883
-0.14688088 0.053783182 0.019343195 0.18328369 0.01836274 -0.16651079 0.14697541 0.08222955
0.012038856 0.034426227 -0.039184995 -0.09713881 0.12383867 -0.14152423 0.13814858 -0.01232276
-0.03864976 -0.043973744 0.06487699 0.085702546 -0.067245476 0.027607583 -0.052721016 -0.08556373
0.15088569 -0.10425508 0.02894215 0.021761982 0.1690292 -0.09328741 -0.056915134 -0.08137877
-0.053276293 -0.12934399 -0.06465168 -0.08897583 0.1007241 0.1720114 0.029905165 0.014503401
-0.14702468 -0.029568873 -0.07250709 0.09196746 -0.15797317 -0.10021367 -0.16874817 -0.050774813
-0.039860565 0.002934099 0.013510205 -0.04063405 0.12123965 0.13376036 0.12336632 -0.11030428
-0.12891966 0.061627325 0.017109936 0.16998969 0.14750978 -0.09824445 0.14932854 -0.03989046
0.0003568342 -0.12607606 0.0033313294 0.13881017 0.026243446 -0.0985434 -0.13668716 -0.08898417
-0.12415899 0.055508714 -0.00091370416 -0.15397733 -0.12939133 0.12670523 0.088471524 -0.0662623

blocks.0.fcn_layer.bias f4 [32]
00000000: 4feb 03be f000 73bc 0256 06be a4d3 093e
00000010: 7cb6 d33c 09e3 b4bd bc3b 1ebc cc23 113d
00000020: 5adb 8ebd e535 f93d f425 20be 0989 f63b
00000030: eb6e 763d 07cb f73c 7c45 b63d d3c1 2a3e
00000040: 653e a73d bf2b 083e d978 063d 374a 653c
00000050: 672c 11be 3346 243d 227e febc f392 8b3d
00000060: 089f 143e 729b e73d 4c58 ca3c 16db ed3d
00000070: 13b6 37bd 8df5 343e f45c 173e 6420 34bd
-0.12882732 -0.0148317665 -0.13118747 0.1345964 0.025843851 -0.08832366 -0.0096577965 0.03543453
-0.06975432 0.12168483 -0.15639478 0.00752366 0.060164373 0.030248178 0.08899972 0.166755
0.08166198 0.13297938 0.032830093 0.013994745 -0.14177094 0.04010601 -0.031066004 0.06815138
0.1451379 0.11308946 0.024700306 0.11614053 -0.044851374 0.17671795 0.14781553 -0.043976203

blocks.0.layer_norm.weight f4 [32]
00000000: 4ff5 7e3f 5dd9 a93f eb52 703f a03a 823f
00000010: d6e5 843f a271 7e3f c22d 853f c91b ad3f
00000020: b5f1 843f 8ae5 813f bb64 9f3f dd2b a43f
00000030: b88c 7f3f d246 9e3f 9fb4 9d3f 132a 833f
00000040: 9312 833f e159 7d3f ecd0 753f 380f 893f
00000050: cf6d 8c3f 1841 803f 89d9 8c3f cdac 7d3f
00000060: 4a07 863f ae39 853f bfea 883f 1c61 a43f
00000070: c957 ac3f 41ff 803f eb2d 863f 04a3 803f
0.9959306 1.3269459 0.9387652 1.0174141 1.038264 0.9939214 1.0404589 1.3524104
1.0386263 1.0148175 1.2452615 1.2825886 0.99824095 1.2365363 1.2320746 1.0247215
1.0240043 0.9896527 0.96021914 1.0707769 1.0971011 1.0019865 1.1003886 0.990918
1.0470974 1.0408227 1.0696639 1.2842135 1.346429 1.0077897 1.0482763 1.0049748

blocks.0.layer_norm.bias f4 [32]
00000000: 434b 9bbc af6c 953e 5bd4 85bd e466 b83c
00000010: c326 093d 4a38 39bc 9896 1c3d fe75 9b3e
00000020: 146f 8e3c 249b 0f3c be0d 803e 7f1c 8e3e
00000030: 1a72 77bb 47df 803e 8230 803e 77d8 af3c
00000040: 94f8 e93c f194 0cba c1fd 17bd 8d5c f73c
00000050: 07a3 653d 5175 1a3b d340 453d b453 3abc
00000060: 324e d53c 1a54 d03c c6e4 0a3d 5934 8e3e
00000070: 9b07 993e 8b2a 6f3c 9028 1f3d 4922 4d3c
-0.018956786 0.29184482 -0.06534644 0.02251 0.03348423 -0.011304924 0.038229555 0.30363458
0.01738695 0.008765016 0.25010484 0.27756116 -0.0037757219 0.25170347 0.2503701 0.021465523
0.028560914 -0.000536277 -0.037107233 0.030195499 0.056063678 0.0023568461 0.048157524 -0.011372495
0.026038263 0.025430728 0.03390958 0.27774313 0.29888615 0.014597545 0.038857043 0.012520381

last_layer.weight f4 [1, 32]
00000000: 4a26 a93d f42f abbe 2108 ae3b bddf 053e
00000010: f6aa 9c3d 06c9 e9bd a715 4e3d 94c4 a9be
00000020: 6fbf 353e b4f8 3a3e 1e1d c1be 7e2a 9dbe
00000030: 9d5f f13d 9900 bdbe 774d b6be daf1 323e
00000040: 43ee 523d e7f0 94bc 7afe 493b 93a9 6f3e
00000050: 6fa7 233e c5bd 1dbd be9f 343e d952 33bd
00000060: 6252 1d3e eebe 063e c7a4 113e d109 a0be
00000070: 3e65 afbe 6a88 25bd 8d92 5a3e 8a60 0b3e
0.08259256 -0.33435023 0.0053110276 0.1307363 0.07649796 -0.11415295 0.050313618 -0.3315779
0.17748807 0.18258935 -0.37717527 -0.3069648 0.11785815 -0.36914518 -0.35605976 0.17475072
0.051496755 -0.018181277 0.0030821846 0.23404531 0.1598184 -0.038511056 0.17639062 -0.04378018
0.15363458 0.13158771 0.14223014 -0.3125749 -0.3425693 -0.040413298 0.21344967 0.13611045
